…
=0.015, hsv_s=0.7, hsv_v=0.4, degrees=0.0, translate=0.1, scale=0.5, shear=0.0, perspective=0.0, flipud=0.0, fliplr=0.5, bgr=0.0, mosaic=1.0, mixup=0.0, copy_paste=0.0, auto_augment=randaugment, erasing=0.4, crop_fraction=1.0, cfg=None, tracker=botsort.yaml, save_dir=/home/lovelace/proj/proj939/rubenscp/research/white-mold-results/yolov10l.pt/exp-008/training/running-0055-300x300/results/train
Overriding model.yaml nc=80 with nc=6

                   from  n    params  module                                       arguments                     
  0                  -1  1      1856  ultralytics.nn.modules.conv.Conv             [3, 64, 3, 2]                 
  1                  -1  1     73984  ultralytics.nn.modules.conv.Conv             [64, 128, 3, 2]               
  2                  -1  3    279808  ultralytics.nn.modules.block.C2f             [128, 128, 3, True]           
  3                  -1  1    295424  ultralytics.nn.modules.conv.Conv             [128, 256, 3, 2]              
  4                  -1  6   2101248  ultralytics.nn.modules.block.C2f             [256, 256, 6, True]           
  5                  -1  1    137728  ultralytics.nn.modules.block.SCDown          [256, 512, 3, 2]              
  6                  -1  6   8396800  ultralytics.nn.modules.block.C2f             [512, 512, 6, True]           
  7                  -1  1    268800  ultralytics.nn.modules.block.SCDown          [512, 512, 3, 2]              
  8                  -1  3   1744384  ultralytics.nn.modules.block.C2fCIB          [512, 512, 3, True]           
  9                  -1  1    656896  ultralytics.nn.modules.block.SPPF            [512, 512, 5]                 
 10                  -1  1    990976  ultralytics.nn.modules.block.PSA             [512, 512]                    
 11                  -1  1         0  torch.nn.modules.upsampling.Upsample         [None, 2, 'nearest']          
 12             [-1, 6]  1         0  ultralytics.nn.modules.conv.Concat           [1]                           
 13                  -1  3   2006528  ultralytics.nn.modules.block.C2fCIB          [1024, 512, 3, True]          
 14                  -1  1         0  torch.nn.modules.upsampling.Upsample         [None, 2, 'nearest']          
 15             [-1, 4]  1         0  ultralytics.nn.modules.conv.Concat           [1]                           
 16                  -1  3   1247744  ultralytics.nn.modules.block.C2f             [768, 256, 3]                 
 17                  -1  1    590336  ultralytics.nn.modules.conv.Conv             [256, 256, 3, 2]              
 18            [-1, 13]  1         0  ultralytics.nn.modules.conv.Concat           [1]                           
 19                  -1  3   1875456  ultralytics.nn.modules.block.C2fCIB          [768, 512, 3, True]           
 20                  -1  1    268800  ultralytics.nn.modules.block.SCDown          [512, 512, 3, 2]              
 21            [-1, 10]  1         0  ultralytics.nn.modules.conv.Concat           [1]                           
 22                  -1  3   2006528  ultralytics.nn.modules.block.C2fCIB          [1024, 512, 3, True]          
 23        [16, 19, 22]  1   2831284  ultralytics.nn.modules.head.v10Detect        [6, [256, 512, 512]]          
YOLOv10l summary: 628 layers, 25,774,580 parameters, 25,774,564 gradients, 127.2 GFLOPs

Transferred 1015/1027 items from pretrained weights
[34m[1mTensorBoard: [0mStart with 'tensorboard --logdir /home/lovelace/proj/proj939/rubenscp/research/white-mold-results/yolov10l.pt/exp-008/training/running-0055-300x300/results/train', view at http://localhost:6006/
Freezing layer 'model.23.dfl.conv.weight'
…
